…
                    cache. Loading a pre-trained model is a piece of cake - just load it from the module <strong
                        style={{"fontStyle": "italic"}}>torchvision.models</strong> as below:
                </Paragraph>
            </Typography>
            <PythonSnippet text={"import torch\n" +
            "import torchvision.models as models\n" +
            "\n" +
            "pretrained_vgg16 = models.vgg16(pretrained=True)\n" +
            "print(pretrained_vgg16) # should print all the layers from the VGG-16 model"}/>
            <BashSnippet text={"VGG(\n" +
            "  (features): Sequential(\n" +
            "    (0): Conv2d(3, 64, kernel_size=(3, 3), stride=(1, 1), padding=(1, 1))\n" +
            "    (1): ReLU(inplace=True)\n" +
            "    (2): Conv2d(64, 64, kernel_size=(3, 3), stride=(1, 1), padding=(1, 1))\n" +
            "    (3): ReLU(inplace=True)\n" +
            "    (4): MaxPool2d(kernel_size=2, stride=2, padding=0, dilation=1, ceil_mode=False)\n" +
            "    (5): Conv2d(64, 128, kernel_size=(3, 3), stride=(1, 1), padding=(1, 1))\n" +
            "    (6): ReLU(inplace=True)\n" +
            "    (7): Conv2d(128, 128, kernel_size=(3, 3), stride=(1, 1), padding=(1, 1))\n" +
            "    (8): ReLU(inplace=True)\n" +
            "    (9): MaxPool2d(kernel_size=2, stride=2, padding=0, dilation=1, ceil_mode=False)\n" +
            "    (10): Conv2d(128, 256, kernel_size=(3, 3), stride=(1, 1), padding=(1, 1))\n" +
            "    (11): ReLU(inplace=True)\n" +
            "    (12): Conv2d(256, 256, kernel_size=(3, 3), stride=(1, 1), padding=(1, 1))\n" +
            "    (13): ReLU(inplace=True)\n" +
            "    (14): Conv2d(256, 256, kernel_size=(3, 3), stride=(1, 1), padding=(1, 1))\n" +
            "    (15): ReLU(inplace=True)\n" +
            "    (16): MaxPool2d(kernel_size=2, stride=2, padding=0, dilation=1, ceil_mode=False)\n" +
            "    (17): Conv2d(256, 512, kernel_size=(3, 3), stride=(1, 1), padding=(1, 1))\n" +
            "    (18): ReLU(inplace=True)\n" +
            "    (19): Conv2d(512, 512, kernel_size=(3, 3), stride=(1, 1), padding=(1, 1))\n" +
            "    (20): ReLU(inplace=True)\n" +
            "    (21): Conv2d(512, 512, kernel_size=(3, 3), stride=(1, 1), padding=(1, 1))\n" +
            "    (22): ReLU(inplace=True)\n" +
            "    (23): MaxPool2d(kernel_size=2, stride=2, padding=0, dilation=1, ceil_mode=False)\n" +
            "    (24): Conv2d(512, 512, kernel_size=(3, 3), stride=(1, 1), padding=(1, 1))\n" +
            "    (25): ReLU(inplace=True)\n" +
            "    (26): Conv2d(512, 512, kernel_size=(3, 3), stride=(1, 1), padding=(1, 1))\n" +
            "    (27): ReLU(inplace=True)\n" +
            "    (28): Conv2d(512, 512, kernel_size=(3, 3), stride=(1, 1), padding=(1, 1))\n" +
            "    (29): ReLU(inplace=True)\n" +
            "    (30): MaxPool2d(kernel_size=2, stride=2, padding=0, dilation=1, ceil_mode=False)\n" +
            "  )\n" +
            "  (avgpool): AdaptiveAvgPool2d(output_size=(7, 7))\n" +
            "  (classifier): Sequential(\n" +
            "    (0): Linear(in_features=25088, out_features=4096, bias=True)\n" +
            "    (1): ReLU(inplace=True)\n" +
            "    (2): Dropout(p=0.5, inplace=False)\n" +
            "    (3): Linear(in_features=4096, out_features=4096, bias=True)\n" +
            "    (4): ReLU(inplace=True)\n" +
            "    (5): Dropout(p=0.5, inplace=False)\n" +
            "    (6): Linear(in_features=4096, out_features=1000, bias=True)\n" +
            "  )\n" +
            ")\n"} hideLineNumbers/>
            <br/>
            <Typography>
                <Title level={3}>Implementation</Title>
                <Paragraph>
                    Now, we will look at the implementation of the testing/prediction of images. To read the images, we
                    will continue to use OpenCV, as we used in the previous post. Since OpenCV loads images in BGR
…
